levaku lakshmi mounika exp3.pt (torch, 244176 bytes, 10 tensors)

conv1.weight f4 [6, 1, 3, 3]
-0.12857729 0.35877982 0.24276535 -0.08620743 0.057467893 0.37709972 -0.35796583 0.05896041
0.42530432 -0.11993503 0.33846718 0.092123635 0.19071385 0.55130345 0.24954824 0.06012185
-0.30044842 -0.45016772 0.4112443 0.5916615 0.47847164 -0.04489281 -0.15639228 0.052973237
-0.7448686 -0.66473466 -0.5271489 0.038307074 0.36092085 -0.34416017 0.27320004 0.091730714
-0.46539056 0.54099274 -0.36706325 -0.5451019 -0.49446478 -0.2487582 0.16535842 -0.22420886
0.2894267 0.015867777 0.43477908 0.36942723 -0.14376932 -0.015106457 0.20095026 -0.4656895
0.36428714 -0.17758442 0.11791422 0.18070127 0.2562491 0.2065095
00000000: c4a9 03be fdb1 b73e 7b97 783e 858d b0bd
00000010: 7463 6b3d 3713 c13e 4c47 b7be 7980 713d
00000020: 7dc1 d93e 7fa0 f5bd 924b ad3e 51ab bc3d
00000030: 7e4a 433e 3922 0d3f 9389 7f3e 5442 763d
00000040: 60d4 99be 627c e6be 9d8e d23e 2177 173f
00000050: 3cfa f43e 86e1 37bd 4c25 20be 77fa 583d
00000060: b5af 3ebf 0d2c 2abf 3bf3 06bf e1e7 1c3d
00000070: 9eca b83e c335 b0be e0e0 8b3e 50dd bb3d
00000080: ac47 eebe 807e 0a3f b7ef bbbe cc8b 0bbf
00000090: 7d2a fdbe 78ba 7ebe b853 293e 0297 65be
000000a0: bd2f 943e 24fd 813c 5d9b de3e 9125 bd3e
000000b0: 4438 13be 1381 77bc e8c5 4d3e db6e eebe
000000c0: d883 ba3e b1d8 35be 037d f13d c109 393e
000000d0: 1533 833e 3a77 533e

conv1.bias f4 [6]
-0.12080362 -0.045192868 0.2785588 0.15438429 -0.082838364 -0.08267205
00000000: e367 f7bd 281c 39bd 429f 8e3e ea16 1e3e
00000010: 29a7 a9bd f74f a9bd

conv2.weight f4 [16, 6, 3, 3]
-0.012849086 -0.24312311 -0.39395553 -0.07236694 -0.042281907 0.036984853 0.09169238 -0.1183695
0.027753925 -0.024757106 0.082647294 -0.35180238 -0.09242191 0.10927256 0.1858622 0.07013588
0.10989799 0.12152949 -0.33025578 -0.22731668 0.2705647 -0.1567745 -0.038042627 -0.02684704
-0.115434684 0.38704 0.34995815 0.032211564 0.25685656 -0.11934068 -0.14018321 -0.10586614
-0.31497985 0.018235186 -0.10807362 -0.013610666 0.04187995 -0.19553143 -0.21142367 0.09645742
0.16496657 0.27192527 -0.15785101 -0.005828313 -0.17444398 -0.0658249 -0.08824397 -0.19506854
0.1332312 -0.0034095617 0.23292267 -0.09289777 0.014614191 -0.232578 -0.60013884 -0.13743807
-0.12060938 0.039614365 0.023243705 -0.2802806 0.1573436 0.17812222 0.124070555 -0.37864178
-0.27508998 -0.06305814 0.041785568 -0.03365961 -0.31191093 0.2542337 -0.047334783 -0.1265107
0.20687449 -0.037443873 0.17181669 0.113050774 -0.23936756 -0.18843259 0.40473825 -0.14131543
-0.27269432 -0.107455485 -0.15427805 0.0007360175 -0.09734493 0.009957465 0.12720731 0.017499458
-0.03978837 0.004806189 -0.16379292 -0.17202608 -0.37861326 0.26680908 -0.06652283 -0.15433691
0.31510523 0.051003553 0.1409679 -0.3222649 -0.33019793 -0.4409679 0.16433173 -0.062118106
0.03512975 0.26454958 0.024541916 0.27979836 0.07347689 -0.019089738 -0.15613885 0.018501941
-0.006801234 -0.27673578 -0.13133018 0.22762749 0.1378045 -0.14501803 0.09279216 0.3244997
0.0023769129 -0.19120333 -0.1327748 -0.05939009 0.18541542 0.06612314 0.030815922 -0.46423706
0.12657252 0.027861444 -0.25573742 -0.25435343 0.08875377 0.39598066 0.118043594 -0.16427182
0.14795586 0.27530724 -0.07569873 -0.11000666 0.22695255 0.019250492 -0.47176892 -0.30981034
-0.20125894 0.041596126 0.030314572 -0.21997374 -0.10531356 -0.057046883 -0.12500732 -0.23603688
0.0030330871 -0.051754594 0.1484203 -0.14682141 -0.22994444 0.13442902 0.15127556 -0.46096548
-0.0540604 0.10917378 0.20965894 0.3453442 0.14297746 -0.1511186 0.08469249 -0.12804323
0.0022198325 0.2178328 0.1617261 -0.1732241 0.24245544 0.21615984 -0.40655565 0.046335507
0.20532574 -0.16607282 0.01572184 0.09340144 -0.13622093 -0.29073933 -0.5194215 0.052195847
-0.24564976 -0.7923014 0.002641034 -0.11439831 -0.30220976 -0.24748208 -0.24366352 0.14364286
-0.10598493 -0.30101523 0.17769268 -0.4283882 -0.4048348 -0.03623371 -0.16232999 0.05018412
2.3712782e-06 -0.077358425 0.1486919 -0.11845676 0.082602374 -0.16515803 -0.14977504 -0.38047317
0.15523672 0.2743488 -0.16986741 0.10008914 0.23518538 -0.23757301 0.099184155 0.2928081
-0.06519181 0.026653206 -0.024496598 0.023126217 0.029988596 -0.09243921 0.0022858456 0.10629151
-0.08244399 0.028969586 -0.017871648 -0.009311797 0.001526002 0.11370213 -0.112838976 -0.09018395
-0.043763697 -0.06188786 -0.13588175 0.079561874 0.039751135 0.0059047067 -0.04925037 0.05389309
-0.13322744 -0.08329969 -0.09602401 -0.029933665 -0.011665941 -0.12144949 0.06345087 0.031446137
-0.1279512 -0.011126792 -0.14693132 -0.033306465 -0.099269405 -0.014058717 -0.064191476 0.101500936
00000000: f984 52bc 44f5 78be 8ab4 c9be 1e35 94bd
00000010: cb2f 2dbd 6e7d 173d 37c9 bb3d b56b f2bd
00000020: 335c e33c 6acf cabc fc42 a93d 711f b4be
00000030: b347 bdbd 4bca df3d a952 3e3e 66a3 8f3d
00000040: 3312 e13d 74e4 f83d 4917 a9be b4c5 68be
00000050: 7587 8a3e 7f89 20be 96d2 1bbd 53ee dbbc
00000060: 0569 ecbd 1b2a c63e b72d b33e 46f0 033d
00000070: b482 833e e368 f4bd 308c 0fbe 59d0 d8bd
00000080: 0a45 a1be f561 953c b455 ddbd 45ff 5ebc
00000090: 4f8a 2b3d 6439 48be 727f 58be 788b c53d
000000a0: ffec 283e ca39 8b3e b2a3 21be 6ffb bebb
000000b0: 71a1 32be 35cf 86bd 41b9 b4bd 0cc0 47be
000000c0: c26d 083e f472 5fbb 4883 6e3e 3041 bebd
000000d0: 5c70 6f3c ed28 6ebe b3a2 19bf 91bc 0cbe
000000e0: 0d02 f7bd ac42 223d 9569 be3c f080 8fbe
000000f0: ae1e 213e ac65 363e b418 fe3d 56dd c1be
00000100: 98d8 8cbe a024 81bd 5827 2b3d a9de 09bd
00000110: cab2 9fbe eb2a 823e 1ee2 41bd 058c 01be
00000120: e8d6 533e bf5e 19bd b7f0 2f3e 2a87 e73d
00000130: c51c 75be 79f4 40be da39 cf3e feb4 10be
00000140: 979e 8bbe 9f11 dcbd 11fb 1dbe 4cf1 403a
00000150: c75c c7bd a324 233c a242 023e 065b 8f3c
00000160: 21f9 22bd 3c7d 9d3b 55b9 27be 9b27 30be
00000170: 99d9 c1be 339b 883e 1f3d 88bd 7f0a 1ebe
00000180: 7955 a13e 1ae9 503d e459 103e e8ff a4be
00000190: b40f a9be 8bc6 e1be 9446 283e 8e6f 7ebd
000001a0: 36e4 0f3d 0b73 873e 210c c93c bb41 8f3e
000001b0: 0d7b 963d 1562 9cbc dde2 1fbe 6291 973c
000001c0: e3dc debb 50b0 8dbe 6b7b 06be 2e17 693e
000001d0: 9f1c 0d3e 9b7f 14be d109 be3d d324 a63e
000001e0: fbc5 1b3b ceca 43be 1ef6 07be 0643 73bd
000001f0: 8add 3d3e 926b 873d ac71 fc3c 7bb0 edbe
00000200: 3a9c 013e af3d e43c 04f0 82be 9d3a 82be
00000210: 89c4 b53d fabd ca3e d7c0 f13d df36 28be
00000220: be81 173e 12f5 8c3e f007 9bbd 2c4b e1bd
00000230: 4066 683e 35b3 9d3c b28b f1be 769f 9ebe
00000240: d316 4ebe b360 2a3d 4456 f83c cc40 61be
00000250: a3ae d7bd fea9 69bd eb01 00be a7b3 71be
00000260: c2c6 463b a0fc 53bd 7efb 173e 5a58 16be
00000270: 8e76 6bbe c3a7 093e fbe7 1a3e ab03 ecbe
00000280: 706e 5dbd 8196 df3d d5b0 563e f4d0 b03e
00000290: af68 123e d6be 1abe 4273 ad3d c41d 03be
000002a0: 9c7a 113b 900f 5f3e 879b 253e a961 31be
000002b0: 3d46 783e 0159 5d3e 1028 d0be 4dca 3d3d
000002c0: e940 523e fe0e 2abe 17cb 803c 4149 bf3d
000002d0: 807d 0bbe c9db 94be cff8 04bf 50cb 553d
000002e0: 9c8b 7bbe 44d4 4abf 3315 2d3b a949 eabd
000002f0: 3dbb 9abe f16b 7dbe ee82 79be 1d17 133e
00000300: a10e d9bd ab1e 9abe 12f5 353e b355 dbbe
00000310: 8246 cfbe cc69 14bd d539 26be dd8d 4d3d
00000320: 4022 1f36 186e 9ebd b042 183e 7599 f2bd
00000330: 6f2b a93d 301f 29be a15e 19be 61cd c2be
00000340: 60f6 1e3e 7277 8c3e b9f1 2dbe 89fb cc3d
00000350: 70d4 703e 5746 73be 1021 cb3d f1ea 953e
00000360: 4983 85bd d357 da3c 17ad c8bc 3173 bd3c
00000370: a5aa f53c c550 bdbd 20ce 153b 5daf d93d
00000380: 65d8 a8bd a051 ed3c 9067 92bc 8290 18bc
00000390: 2104 c83a aadc e83d 1f18 e7bd 5db2 b8bd
000003a0: 9041 33bd 207e 7dbd 9624 0bbe 56f1 a23d
000003b0: 16d2 223d 457c c13b c2ba 49bd 00bf 5c3d
000003c0: c66c 08be 0799 aabd 3ca8 c4bd 7237 f5bc
000003d0: 8122 3fbc 83ba f8bd 88f2 813d aacd 003d
000003e0: a405 03be 264d 36bc 2a75 16be 5c6c 08bd
000003f0: c24d cbbd 8856 66bc d276 83bd b9df cf3d

conv2.bias f4 [16]
-0.2302109 -0.16485853 -0.17648053 0.04100058 -0.13155988 0.13078214 -0.27904713 -0.11896168
0.02507729 -0.18397708 -0.03597263 -0.15038715 -0.07459949 -0.112292096 0.12684307 -0.010790212
00000000: 68bc 6bbe add0 28be 50b7 34be 39f0 273d
00000010: a2b7 06be c1eb 053e 44df 8ebe 2ea2 f3bd
00000020: e46e cd3c 7d64 3cbe 0958 13bd 17ff 19be
00000030: 9ec7 98bd 66f9 e5bd 26e3 013e 6ec9 30bc

fc1.weight f4 [120, 400]
-0.023292737 -0.06326035 -0.009225313 -0.048597403 0.040946323 0.018501809 0.023338117 -0.04083654
-0.0024502983 -0.0204409 -0.08779626 0.00024094118 0.0010480041 -0.011663933 -0.038577195 -0.00026159687
-0.05919352 -0.030507341 0.018105062 0.019472959 -0.03522239 -0.04569256 0.017319178 -0.0042849076
-0.022956457 -0.0106021995 -0.03610068 -0.015077098 -0.05270233 0.018066851 -0.034825347 -0.05271064
0.007446833 -0.05740422 -0.044306684 -0.047233928 -0.03270344 -0.009515607 -0.010787066 0.039288867
0.031556394 -0.058014777 -0.045791794 -0.014711974 0.027843934 -0.016203932 -0.043230344 -1.2162154e-05
0.05110636 -0.036334146 -0.005684001 -0.035020348 -0.0002595832 -0.0040315045 0.030389644 0.05422447
-0.068158016 -0.018942341 -0.056585375 0.009758158 -0.041144524 -0.04594557 -0.07860218 -0.0011702367
-0.03290578 -0.029093506 0.0035186247 -0.048144273 -0.0097113 -0.011610771 -0.045418892 0.013291664
-0.06554528 -0.024610642 0.017333502 0.026023483 -0.03584776 -0.048070084 -0.05781416 0.013404697
-0.02464246 0.0057023927 -0.017542524 -0.03572477 -0.08287606 -0.017604567 0.01919491 -0.046732686
-0.08311249 -0.08475559 -0.052698508 -0.015249357 -0.026139084 0.018817727 0.0013701445 -0.007495909
-0.04179514 -0.018272294 -0.06728387 0.034582365 0.040715106 -0.03743723 -0.0471103 -0.015785933
0.023637474 -0.04291314 -0.04688415 0.037855487 -0.042159267 -0.044485867 0.014930022 -0.020867849
-0.021234168 0.011990947 -0.01683411 0.04872937 -0.026187068 0.00986318 -0.035633862 -0.038188815
0.040363867 0.02263683 -0.038067568 -0.014384776 0.0145814065 0.036523998 -0.065253995 -0.052178163
0.002953392 -0.06507146 0.021006336 0.0023692138 -0.024673749 -0.07032386 -0.015830323 -0.0011018877
0.007589735 -0.015225105 -0.09001936 0.03543862 0.01304474 -0.0028347305 -0.085922174 0.02233707
0.0013400397 0.028164534 -0.06715199 -0.014588942 0.08035868 -0.04048082 -0.04880526 0.037225112
-0.030705951 -0.008298492 -0.033453688 0.0118193105 -0.0039838706 -0.038817655 0.0015997916 -0.012371878
-0.044356015 -0.031377044 -0.046364583 -0.06675622 -0.05273752 -0.06960067 0.019140242 -0.056042075
-0.07326454 0.034113318 -0.057029087 -0.041593704 -0.05932937 0.009874063 -0.03920584 -0.01923643
0.025599957 -0.042532574 -0.046005577 0.043773394 -0.022802284 -0.0026998639 -0.030117577 -0.025716705
-0.03417677 0.043125257 -0.034811303 -0.06502088 -0.06869068 -0.044978403 -0.010293071 -0.016212722
-0.07802827 -0.07288831 -0.047737047 -0.042279407 -0.04687124 -0.061264787 -0.05043094 -0.027228337
-0.06769484 -0.008292116 0.015772412 -0.055991374 -0.0565922 -0.019033406 -0.001717276 0.046710696
0.07318207 0.07261751 -0.035691395 -0.05142065 -0.033529516 -0.047910754 -0.06461966 0.00751574
-0.077577434 0.05680544 0.003393553 8.6341526e-05 -0.061286163 0.047947153 0.022701904 -0.036017112
-0.023036232 0.059438348 -0.043579448 -0.047881726 0.024208179 0.027613379 -0.010869091 -0.037710037
-0.060813855 -0.029671567 -0.09289888 -0.022748338 0.043975472 -0.034386307 0.031193001 0.027881427
0.015391448 -0.053449698 -0.07284362 0.028045198 -0.052124992 -0.06353524 -0.014291683 -0.0027833285
0.00063461124 -0.02764514 -0.024028385 0.03161645 -0.0019036897 -0.023302903 0.0285766 -0.03325126
00000000: 69d0 bebc a48e 81bd c425 17bc 120e 47bd
00000010: 55b7 273d 1b91 973c 942f bf3c 3744 27bd
00000020: 2f95 20bb ad73 a7bc 87ce b3bd 28a5 7c39
00000030: 2f5d 893a 151a 3fbc 1f03 1ebd f026 89b9
00000040: e874 72bd 88ea f9bc 1151 943c c185 9f3c
00000050: 5a45 10bd 1f28 3bbd f3e0 8d3c 6968 8cbb
00000060: 2e0f bcbc d9b4 2dbc 4ede 13bd ef05 77bc
00000070: 66de 57bd ef00 943c 06a5 0ebd 1de7 57bd
00000080: 9004 f43b b020 6bbd ed7a 35bd 5d78 41bd
00000090: 0bf4 05bd 59e7 1bbc 3cbc 30bc 5ded 203d
000000a0: 4741 013d e7a0 6dbd 2d90 3bbd 7e0a 71bc
000000b0: f618 e43c 1cbe 84bc 4d12 31bd 0e0c 4cb7
000000c0: e754 513d 1dd3 14bd db40 babb 7f71 0fbd
000000d0: ab18 88b9 b61a 84bb b4f3 f83c 7a1a 5e3d
000000e0: 6e96 8bbd f82c 9bbc 11c6 67bd aee0 1f3c
000000f0: 2987 28bd 6c31 3cbd 2efa a0bd a162 99ba
00000100: 36c8 06bd 8155 eebc ba98 663b ee32 45bd
00000110: 251c 1fbc 1a3b 3ebc 2909 3abd 48c5 593c
00000120: 9b3c 86bd 429c c9bc fdfe 8d3c 332f d53c
00000130: 1ad5 12bd 23e5 44bd 8ace 6cbd 609f 5b3c
00000140: fcde c9bc 23db ba3b 57b5 8fbc 2354 12bd
00000150: ecba a9bd 7437 90bc a53e 9d3c c66a 3fbd
00000160: e236 aabd 5794 adbd 64da 57bd 70d8 79bc
00000170: a221 d6bc a227 9a3c 6c96 b33a 3ea0 f5bb
00000180: 6131 2bbd c7af 95bc 20cc 89bd 3da6 0d3d
00000190: e2c4 263d c857 19bd bbf6 40bd 8051 81bc
000001a0: 60a3 c13c b0c5 2fbd 9809 40bd 5b0e 1b3d
000001b0: 32af 2cbd d036 36bd 0d9d 743c 0df3 aabc
000001c0: 47f3 adbc ad75 443c b0e7 89bc 7398 473d
000001d0: 4386 d6bc 2d99 213c d0f4 11bd e06b 1cbd
000001e0: 9554 253d e070 b93c bdec 1bbd 20ae 6bbc
000001f0: dae6 6e3c 309a 153d e3a3 85bd c5b8 55bd
00000200: b28d 413b 3044 85bd 7b15 ac3c d044 1b3b
00000210: 9a20 cabc f505 90bd 98ae 81bc 376d 90ba
00000220: 50b3 f83b b872 79bc 125c b8bd 1628 113d
00000230: 9bb9 553c e3c6 39bb f7f7 afbd 3bfc b63c
00000240: 45a4 af3a 4fb9 e63c fc86 89bd 7506 6fbc
00000250: 1793 a43d 37cf 25bd 06e8 47bd 5c79 183d
00000260: 0c8b fbbc 66f6 07bc bc06 09bd c8a5 413c
00000270: 218b 82bb 43ff 1ebd 19b0 d13a 6bb3 4abc
00000280: a7ae 35bd 3785 00bd cae8 3dbd 7cb7 88bd
00000290: 4c03 58bd cc8a 8ebd ffcb 9c3c 608c 65bd
000002a0: b80b 96bd 68ba 0b3d 5597 69bd 295e 2abd
000002b0: 5a03 73bd d2c6 213c 4e96 20bd b895 9dbc
000002c0: 00b7 d13c a336 2ebd 5870 3cbd bb4b 333d
000002d0: dbcb babc 33f0 30bb 23b9 f6bc d7ab d2bc
000002e0: f1fc 0bbd 1ca4 303d 4c96 0ebd ab29 85bd
000002f0: b3ad 8cbd 463b 38bd 45a4 28bc 8bd0 84bc
00000300: 49cd 9fbd 7746 95bd ec87 43bd 2c2d 2dbd
00000310: 0ffc 3fbd c9f0 7abd ac90 4ebd f60d dfbc
00000320: 98a3 8abd a8db 07bc 2535 813c 3657 65bd
00000330: 39cd 67bd f2eb 9bbc 3916 e1ba b753 3f3d
00000340: 7be0 953d 7db8 943d 2431 12bd 769e 52bd
00000350: 3f56 09bd 113e 44bd 5057 84bd 9946 f63b
00000360: ebe0 9ebd d2ac 683d 5f66 5e3b 4112 b538
00000370: 3307 7bbd 3c64 443d 58f9 b93c ae86 13bd
00000380: 7bb6 bcbc a075 733d 5d80 32bd a11f 44bd
00000390: 3b50 c63c 7435 e23c 4614 32bc d775 1abd
000003a0: f317 79bd c911 f3bc c541 bebd b95a babc
000003b0: a01f 343d a8d8 0cbd 7788 ff3c 9767 e43c
000003c0: 692c 7c3c 12ee 5abd 092f 95bd 0bbf e53c
000003d0: 0481 55bd c41e 82bd aa27 6abc 8168 36bb
000003e0: 0a5c 263a 1078 e2bc 2dd7 c4bc 4080 013d
000003f0: 3a85 f9ba bbe5 bebc 7919 ea3c 7932 08bd

fc1.bias f4 [120]
0.00784972 0.1349963 0.002989347 0.046342187 -0.07676753 0.20318013 -0.008821233 0.11690558
-0.047328446 -0.0028098745 -0.11585657 -0.04609588 0.04980218 -0.06946411 0.00912602 0.0001591744
0.016003855 -0.11317785 -0.03915287 0.0013931845 0.012620001 0.07079498 -0.09340825 -0.080727726
-0.059628434 -0.023829242 -0.01688574 -0.018322466 -0.10693357 0.0538321 -0.026834961 0.022809146
-0.034208383 0.009994351 -0.14009881 -0.059897657 -0.07241295 0.05129275 0.15066047 -0.09846478
-0.15429743 -0.0073714554 0.013208889 -0.041324712 -0.13447836 -0.01985871 -0.03736644 -0.013703474
-0.07759208 0.11980429 0.06840999 0.010749218 0.022888608 -0.008571387 -0.047048766 -0.026453363
0.108789496 0.007351548 -0.14709054 -0.03454023 0.1392488 -0.023817953 -0.028766084 -0.08768294
-0.06848683 -0.1703001 -0.03500445 -0.0960868 -0.016007246 -0.13391685 -0.08812616 -0.089113645
-0.020962015 -0.0006462062 -0.10930836 0.016880367 -0.020969825 -0.02968383 -0.072627574 -0.0072670965
0.021741226 0.075052135 -0.017731884 -0.06387813 0.068796314 -0.071288094 -0.029854003 0.05965514
-0.025306461 -0.030614007 0.08440684 0.005426431 -0.022983292 -0.06507397 -0.055069618 0.10761612
-0.08532151 -0.034711495 -0.024713997 -0.113005884 0.005127623 0.048434377 -0.10933149 0.07650594
-0.059235927 -0.14528619 -0.03419388 -0.03155001 0.040517107 -0.04134914 -0.07995208 -0.0022146923
-0.019015864 -0.07304168 -0.12306014 -0.14130238 -0.05006618 -0.0012708257 -0.05427156 -0.059031524
00000000: 1d9c 003c 783c 0a3e ece8 433b 4ed1 3d3d
00000010: 4b38 9dbd 740e 503e ef86 10bc 316c ef3d
00000020: 79db 41bd df25 38bb 3646 edbd 09cf 3cbd
00000030: 5ffd 4b3d 3343 8ebd 4d85 153c 0de8 2639
00000040: 841a 833c cac9 e7bd c35e 20bd 849b b63a
00000050: 1fc4 4e3c f5fc 903d d34c bfbd 9454 a5bd
00000060: f23c 74bd 8b35 c3bc f753 8abc ff18 96bc
00000070: fdff dabd 0c7f 5c3d fed4 dbbc 3fda ba3c
00000080: 171e 0cbd 59bf 233c 1076 0fbe 3f57 75bd
00000090: 3e4d 94bd 5918 523d bd46 1a3e e7a7 c9bd
000000a0: 2500 1ebe 408c f1bb 196a 583c 1a44 29bd
000000b0: b2b4 09be bcae a2bc 8d0d 19bd 8984 60bc
000000c0: 99e8 9ebd f45b f53d 891a 8c3d 7d1d 303c
000000d0: e480 bb3c 016f 0cbc 35b6 40bd b9b4 d8bc
000000e0: 07cd de3d 41e5 f03b e79e 16be 0e7a 0dbd
000000f0: 3d97 0e3e de1d c3bc daa6 ebbc 1d93 b3bd
00000100: d342 8cbd 2663 2ebe d360 0fbd 28c9 c4bd
00000110: a121 83bc 8021 09be 7d7b b4bd 3781 b6bd
00000120: 88b8 abbc 2a66 29ba 10dd dfbd b248 8a3c
00000130: e9c8 abbc 812b f3bc c4bd 94bd d320 eebb
00000140: a81a b23c efb4 993d 7542 91bc 89d2 82bd
00000150: 15e5 8c3d 7eff 91bd 6290 f4bc f358 743d
00000160: 7f4f cfbc 3aca fabc 7edd ac3d 34d0 b13b
00000170: 7547 bcbc 8045 85bd ae90 61bd d765 dc3d
00000180: 0bbd aebd a42d 0ebd 0275 cabc a16f e7bd
00000190: 9f05 a83b 2063 463d 30e9 dfbd 25af 9c3d
000001a0: 5fa1 72bd e7c5 14be e20e 0cbd 953a 01bd
000001b0: 44f5 253d b75d 29bd ebbd a3bd 5f24 11bb
000001c0: 28c7 9bbc e096 95bd f406 fcbd 92b1 10be
000001d0: 3212 4dbd d691 a6ba db4b 5ebd 0acb 71bd

fc2.weight f4 [84, 120]
0.0031876126 0.043554094 -0.16284035 -0.28788063 -0.013156306 -0.3237648 -0.088980615 -0.17731336
0.08806028 0.04663072 -0.3127346 0.106292695 0.013738562 0.0711864 -0.05489594 -0.23847853
0.012024048 0.097429074 -0.06695817 -0.04113968 -0.017228633 -0.01643617 0.0067426246 -0.017289886
0.012914133 -0.060846206 -0.0015160525 0.26672652 -0.1375951 -0.24310634 -0.0502849 -0.12967353
-0.09428407 0.030461354 0.040239193 0.071122184 -0.009793299 0.041475896 -0.2562652 -0.028302412
-0.15340935 -0.113653414 -0.14500898 0.020638464 0.21098681 0.035729203 -0.08256402 -0.2016915
-0.06952634 -0.091971636 -0.2206826 0.14659399 0.047454193 0.07953335 0.021432161 -0.039810695
-0.18201117 -0.042056564 -0.004574749 -0.1653481 -0.18412486 -0.022626923 0.13037446 -0.13174339
-0.097420946 0.02828201 0.14287356 -0.31866723 -0.0017627227 0.05411024 0.113197014 0.031244608
0.06436551 -0.22863603 -0.0068703922 -0.3052317 -0.14811194 -0.22280511 -0.31991202 -0.018492762
-0.024949137 -0.057219576 0.06860815 0.13409829 -0.034922622 -0.002635913 0.07067352 0.07011723
-0.03293226 -0.048205983 -0.26243514 0.044692993 -0.115770146 -0.12653491 0.016110241 -0.28878763
0.07562423 0.080740355 0.037928212 0.11474886 0.029399669 0.0054059834 -0.06789535 -0.5004472
-0.07038303 -0.004121485 -0.045579605 0.01586183 -0.3608383 0.09710823 -0.0019432787 -0.12835734
-0.04459855 -0.039485786 0.062033504 0.0034237881 -0.07523688 -0.0936418 0.070557795 -0.01758571
0.026135782 0.029550033 0.008976437 -0.008488496 -0.040113408 -0.030293487 0.07051609 0.15555324
-0.06254587 -0.009608628 0.03762968 0.13693619 -0.08760751 0.061130296 0.24568187 0.11429631
0.0015720933 -0.37874922 -0.052247733 0.07534446 -0.1634041 0.010153409 0.091834545 0.11129507
-0.048732832 -0.09610799 0.02780891 -0.29403427 -0.15475221 0.08977386 0.008977042 0.098933645
0.033724327 0.086274624 0.1609702 -0.01620012 0.02297704 -0.005298175 -0.15953022 0.024205996
0.024566118 -0.17350529 0.1343014 -0.02488205 -0.06979156 -0.049448345 -0.033447765 -0.23727547
0.10925168 0.09721166 0.1967685 -0.45686656 -0.06581929 -0.059675705 0.08770508 0.07791036
0.19166559 -0.056712806 -0.018885061 0.056311868 0.18872786 0.07692107 -0.17772958 -0.102481626
0.06682584 0.16903517 0.08200167 0.16765173 0.032827154 -0.08391631 -0.30027783 0.02364971
-0.085524924 -0.119578764 0.16661608 -0.15014662 -0.053725116 -0.1428268 0.19249387 0.013079095
0.019187013 0.08346188 0.011390893 -0.46527013 -0.16171348 0.064518295 -0.022681208 -0.07657584
0.07084029 -0.03856932 0.16727893 -0.02306756 -0.03225793 0.14237934 0.00648559 -0.042147484
-0.34374204 -0.014927881 0.059255753 -0.13959505 0.074799225 0.046902705 0.07630938 -0.09242653
-0.15355292 -0.026855707 0.07856329 0.011901565 0.14771955 -0.08625969 -0.17033806 -0.018951183
-0.10361419 -0.05387708 0.14785354 0.03738896 -0.015933018 -0.3159994 0.012606283 -0.20953934
-0.0383628 0.019730713 -0.0580458 0.021846965 -0.015391821 -0.04949595 -0.035219736 -0.18245716
-0.074255824 -0.059225127 -0.027626054 0.27034697 -0.014447776 0.002658375 -0.23169167 -0.07283868
00000000: 44e7 503b c765 323d 9fbf 26be 1765 93be
00000010: 8c8d 57bc 80c4 a5be 783b b6bd a291 35be
00000020: f358 b43d dbff 3e3d c01e a0be fcaf d93d
00000030: b517 613c 2dca 913d 91da 60bd b733 74be
00000040: 8300 453c e588 c73d 5d21 89bd 1582 28bd
00000050: 1023 8dbc 26a5 86bc 3cf1 dc3b 85a3 8dbc
00000060: cd95 533c df39 79bd 48b6 c6ba 6190 883e
00000070: bbe5 0cbe def0 78be 8af7 4dbd 23c9 04be
00000080: 0218 c1bd 178a f93c dad1 243d 82a8 913d
00000090: 1374 20bc a1e2 293d 3135 83be 76da e7bc
000000a0: 5717 1dbe 1fc3 e8bd 3c7d 14be ff11 a93c
000000b0: ed0c 583e c958 123d 5317 a9bd 3788 4ebe
000000c0: d363 8ebd a05b bcbd 9ffa 61be bc1c 163e
000000d0: 545f 423d 62e2 a23d 8092 af3c 8a10 23bd
000000e0: 2361 3abe 8143 2cbd c7e7 95bb 0351 29be
000000f0: 3a8b 3cbe 195c b9bc e280 053e bde7 06be
00000100: a284 c7bd adaf e73c 724d 123e 5a28 a3be
00000110: 290b e7ba b3a2 5d3d d6d3 e73d b1f4 ff3c
00000120: 11d2 833d 901f 6abe 0721 e1bb 5447 9cbe
00000130: a8aa 17be 0627 64be 82cb a3be 227e 97bc
00000140: 2262 ccbc 135f 6abd 6e82 8c3d 1051 093e
00000150: 060b 0fbd 48bf 2cbb 47bd 903d 9f99 8f3d
00000160: fae3 06bd a373 45bd e65d 86be 0010 373d
00000170: e618 edbd 5e92 01be a0f9 833c f9db 93be
00000180: e0e0 9a3d 335b a53d 9d5a 1b3d 7301 eb3d
00000190: 93d7 f03c ad24 b13b b80c 8bbd 4f1d 00bf
000001a0: fa24 90bd 860d 87bb aeb1 3abd abf0 813c
000001b0: ccbf b8be aee0 c63d 9db5 feba 1b70 03be
000001c0: f8ac 36bd d9bb 21bd d816 7e3d a261 603b
000001d0: cb15 9abd 46c7 bfbd 9b80 903d e80f 90bc
000001e0: b51a d63c e912 f23c e811 133c 5513 0bbc
000001f0: f54d 24bd 0c2a f8bc bd6a 903d 5949 1f3e
00000200: 0d18 80bd 826d 1dbc 9421 1a3d 0039 0c3e
00000210: 916b b3bd c363 7a3d 0794 7b3e 2f14 ea3d
00000220: b30e ce3a 6beb c1be b801 56bd 324e 9a3d
00000230: 6853 27be 7c5a 263c c013 bc3d abee e33d
00000240: 149c 47bd 44d4 c4bd 83cf e33c a98b 96be
00000250: 5d77 1ebe 5cdb b73d 7114 133c b99d ca3d
00000260: 8522 0a3d c0b0 b03d 5fd5 243e 1db6 84bc
00000270: 583a bc3c 509c adbb e45b 23be a74b c63c
00000280: e23e c93c 5fab 31be 4e86 093e 71d5 cbbc
00000290: e1ee 8ebd 598a 4abd 8600 09bd 57f8 72be
000002a0: 58bf df3d e816 c73d af7d 493e 6aea e9be
000002b0: 44cc 86bd 836e 74bd b99e b33d 788f 9f3d
000002c0: fc43 443e b04b 68bd d8b4 9abc 46a7 663d
000002d0: e041 413e cb88 9d3d befe 35be e3e1 d1bd
000002e0: fcdb 883d 8e17 2d3e 7ef0 a73d e5ac 2b3e
000002f0: c475 063d 50dc abbd 04be 99be 09bd c13c
00000300: b127 afbd b6e5 f4bd 689d 2a3e 09c0 19be
00000310: de0e 5cbd 3041 12be 1d1d 453e b349 563c
00000320: 152e 9d3c 10ee aa3d dea0 3a3c e337 eebe
00000330: 3898 25be 2b22 843d f1cd b9bc cbd3 9cbd
00000340: b714 913d ddfa 1dbd 2b4b 2b3e 2ef8 bcbc
00000350: e420 04bd e4cb 113e 1285 d43b d7a2 2cbd
00000360: f5fe afbe 1294 74bc 29b6 723d 01f2 0ebe
00000370: 5630 993d 0d1d 403d 1848 9c3d 1f4a bdbd
00000380: fa3c 1dbe 8000 dcbc cae5 a03d c8fe 423c
00000390: cb43 173e eca8 b0bd 1a6d 2ebe 833f 9bbc
000003a0: ad33 d4bd 37ae 5cbd eb66 173e 2b25 193d
000003b0: f685 82bc acca a1be 958a 4e3c 7b91 56be
000003c0: 5022 1dbd 4ea2 a13c 6fc1 6dbd 68f8 b23c
000003d0: fa2d 7cbc 44bc 4abd 9242 10bd 0dd6 3abe
000003e0: 7013 98bd 0c96 72bd 0950 e2bc eb6a 8a3e
000003f0: 5db6 6cbc 2238 2e3b 9540 6dbe 722c 95bd

fc2.bias f4 [84]
-0.07608399 -0.0044900198 0.07818092 0.13320288 -0.04000304 -0.112136565 -0.02120968 0.0010178618
0.21311665 -0.12978575 0.104885936 0.04485545 0.06333216 -0.11940307 -0.124093264 -0.0525797
0.017428974 0.11891561 0.0073222704 0.0993185 -0.025929797 -0.14919749 -0.11688031 0.04282171
-0.21609928 0.11780514 0.11566503 0.10061315 0.14316216 0.10334157 -0.005028452 -0.030876443
-0.1606773 -0.104557216 0.037215754 0.002569951 -0.029355716 0.024101436 0.28786603 -0.04059122
-0.03707773 0.122188866 0.075801946 -0.013830451 -0.0856239 -0.13318284 0.04004077 0.17510138
0.10760941 -0.11740868 -0.09902915 0.1803518 -0.008437312 -0.1167224 -0.066043705 -0.08654136
0.02088689 -0.14168227 -0.051361255 -0.10752536 0.02078739 -0.060549214 -0.016694758 -0.032254156
0.03590853 -0.03310589 0.034399092 -0.16516414 0.22830379 -0.064222366 0.017714227 0.26210836
-0.21428353 -0.10527792 0.15281658 -0.07498518 -0.10832397 -0.15968993 0.007045973 0.08561193
-0.051832665 -0.07447041 -0.19539557 -0.06561194
00000000: ecd1 9bbd 0421 93bb 511d a03d 5666 083e
00000010: 3ada 23bd dba7 e5bd ecbf adbc c669 853a
00000020: 403b 5a3e 8ee6 04be 70ce d63d 59ba 373d
00000030: 4bb4 813d 9989 f4bd 9c24 febd d05d 57bd
00000040: 35c7 8e3c 078a f33d a8ef ef3b 7f67 cb3d
00000050: ba6a d4bc 3ac7 18be f25e efbd d165 2f3d
00000060: 2149 5dbe d243 f13d cae1 ec3d 440e ce3d
00000070: 1a99 123e bfa4 d33d b6c5 a4bb 98f0 fcbc
00000080: 9788 24be 1822 d6bd 8c6f 183d 9f6c 283b
00000090: 667b f0bc 6070 c53c 2d63 933e fb42 26bd
000000a0: d1de 17bd 283e fa3d 0d3e 9b3d 1e99 62bc
000000b0: 955b afbd 1561 08be ca01 243d c74d 333e
000000c0: 5362 dc3d f673 f0bd cccf cabd 24ae 383e
000000d0: a73c 0abc 270c efbd ec41 87bd 993c b1bd
000000e0: fc1a ab3c 2815 11be 2e60 52bd 4236 dcbd
000000f0: 514a aa3c 7402 78bd 72c3 88bc ef1c 04bd
00000100: d314 133d 0b9a 07bd 10e6 0c3d ca20 29be
00000110: 78c8 693e 0487 83bd 6d1d 913c 1133 863e
00000120: 246d 5bbe f39b d7bd f37b 1c3e d491 99bd
00000130: f5d8 ddbd c285 23be e8e1 e63b 4f55 af3d
00000140: 7d4e 54bd f183 98bd c715 48be 8e5f 86bd

fc3.weight f4 [10, 84]
-0.20441534 -0.43341532 0.12450783 -0.5854397 -0.2936058 -0.32070026 -0.19081244 -0.20502299
-0.0027638632 -0.14703284 0.0003331755 -0.38935828 0.038757257 -0.0736308 -0.38603225 0.076402485
-0.4989704 -0.14997777 0.13027368 -0.2058088 -0.3650329 -0.3726522 0.07304332 -0.18227398
0.0953094 0.1521295 0.20704474 -0.27779925 0.012252658 -0.32912803 -0.2503294 -0.041809306
-0.19092385 0.2855905 0.07947318 0.0794223 0.06164857 -0.23918746 -0.4418199 0.12156553
-0.43002453 -0.22492987 -0.3021463 -0.107440494 -0.03638732 -0.029691376 -0.26945478 -0.28789607
0.16423206 0.13175759 -0.24551195 -0.38738862 -0.19901112 -0.20534365 0.1444419 0.13391116
0.031535752 -0.56846637 -0.20338768 0.2406644 -0.037572835 0.046832647 0.31893852 -0.3627136
0.107400544 0.083067305 -0.3363111 -0.20608227 0.034636166 0.15776479 0.032269698 -0.042223893
-0.21015903 0.17165844 -0.096394435 -0.3299884 0.020633012 -0.009303261 -0.24652909 -0.20153186
-0.3793081 -0.5108424 -0.100596376 -0.28493476 -0.27217862 0.021107966 0.07311214 0.05460116
-0.25072688 -0.19651231 -0.44284582 -0.09505221 -0.047720097 -0.55033904 0.075647675 0.16531673
0.3193586 0.03724423 0.13395862 -0.1555455 -0.17396103 -0.426898 -0.32925126 0.112263784
0.0056577288 -0.1854373 -0.50297725 0.06712712 -0.26241544 0.10753887 0.047707412 0.18911996
-0.022071473 -0.3412504 -0.31125477 0.27602437 -0.42167428 -0.16384612 -0.37038875 -0.4258551
-0.1639562 0.03390329 -0.052134942 0.11083901 -0.009206381 -0.54531777 -0.06891886 -0.17821169
0.07821001 -0.036086433 -0.017585428 0.003952846 -0.07929892 -0.401264 -0.17547084 0.16410634
-0.4046607 -0.27949163 -0.14810972 -0.5041326 -0.45202017 0.05841251 0.022530114 0.1860013
-0.016334526 -0.28856456 0.14310062 0.06902799 -0.27160293 -0.26008976 0.033982933 0.12413901
-0.37827393 -0.2631674 0.16961391 -0.39646682 -0.12402596 0.06995796 -0.0076985396 -0.11372366
-0.77982515 -0.13810484 -0.2571857 -0.17831863 0.057681922 0.09792105 -0.17825219 -0.18272474
-0.1933408 0.12804234 -0.3180813 -0.41385344 0.1858346 -0.21133871 -0.24881473 -0.3205037
-0.091047026 0.007619332 0.1149784 -0.1319073 -0.33603755 -0.21233018 0.191579 -0.6325447
-0.35566735 0.13507827 -0.090571836 0.09019015 -0.17003715 0.03274089 -0.30693763 -0.40170678
-0.15859424 -0.17454228 0.1807361 -0.4286913 0.0013428949 -0.34199253 0.05768154 -0.018915853
0.15792766 -0.13465512 -0.10684841 -0.41903073 0.08241722 -0.31909844 -0.40649152 -0.15023407
0.0026171552 -0.15748627 -0.005754853 -0.2743188 0.112751715 -0.047142692 -0.03541084 -0.13048603
-0.22479111 0.14501436 -0.06456416 -0.30066815 0.11396457 -0.17923765 -0.030485377 -0.27174127
-0.0416194 0.032456186 0.074394315 0.11802789 0.2548525 -0.29336655 -0.70218563 -0.09829478
0.076952875 -0.14150049 -0.25297406 0.0309563 0.09074288 -0.17139305 0.0022658154 0.011726684
-0.093595415 -0.038537413 0.016128661 0.06164673 -0.39751807 -0.045768116 -0.27363807 0.17200083
0.12183304 -0.32220235 -0.1732588 -0.16369833 0.062321242 -0.037531026 0.098828 -0.21427254
00000000: 4152 51be 9de8 ddbe f6fd fe3d 60df 15bf
00000010: 8053 96be d332 a4be 5664 43be 8cf1 51be
00000020: ee21 35bb c78f 16be 0fae ae39 f859 c7be
00000030: eebf 1e3d bfcb 96bd 05a6 c5be e878 9c3d
00000040: 0c79 ffbe c693 19be 7766 053e 8bbf 52be
00000050: 98e5 babe 45cc bebe bc97 953d 08a6 3abe
00000060: 9331 c33d d6c7 1b3e 8903 543e b43b 8ebe
00000070: 5fbf 483c 7883 a8be 2d2b 80be 3c40 2bbd
00000080: 8b81 43be eb38 923e d6c2 a23d 29a8 a23d
00000090: 3683 7c3d 8fed 74be 3836 e2be 59f7 f83d
000000a0: 2d2c dcbe 0454 66be ebb2 9abe c309 dcbd
000000b0: df0a 15bd 543b f3bc faf5 89be 1d67 93be
000000c0: 732c 283e 76eb 063e 7c67 7bbe cd57 c6be
000000d0: 92c9 4bbe 9b45 52be 94e8 133e 0220 093e
000000e0: a22b 013d 0387 11bf dc44 50be ba70 763e
000000f0: f9e5 19bd 97d3 3f3d e94b a33e 99b5 b9be
00000100: d1f4 db3d 311f aa3d f830 acbe 3b07 53be
00000110: a7de 0d3d 188d 213e 3b2d 043d f6f2 2cbd
00000120: ee33 57be 3bc7 2f3e 726a c5bd 3df4 a8be
00000130: 9006 a93c b46c 18bc 1f72 7cbe 5e5e 4ebe
00000140: ac34 c2be 91c6 02bf 7905 cebd f8e2 91be
00000150: ff5a 8bbe 9dea ac3c d1bb 953d 77a5 5f3d
00000160: 465f 80be 863a 49be b0bc e2be bcaa c2bd
00000170: 2676 43bd 05e3 0cbf 2bed 9a3d ca48 293e
00000180: f882 a33e 688d 183d 732c 093e 5247 1fbe
00000190: d722 32be 6092 dabe 9f93 a8be 8eea e53d
000001a0: 7864 b93b 47e3 3dbe 1ec3 00bf f279 893d
000001b0: 515b 86be 573d dc3d d968 433d aaa8 413e
000001c0: 3ccf b4bc 5fb8 aebe c95c 9fbe 1153 8d3e
000001d0: b1e5 d7be 47c7 27be 98a3 bdbe ae09 dabe
000001e0: 22e4 27be 2dde 0a3d 738b 55bd 90ff e23d
000001f0: 5cd6 16bc f299 0bbf 5525 8dbd 207d 36be
00000200: 922c a03d 5ecf 13bd 510f 90bc e086 813b
00000210: 7967 a2bd 7a72 cdbe a1ae 33be 7e0b 283e
00000220: b02f cfbe 8719 8fbe 13aa 17be d60e 01bf
00000230: 306f e7be f541 6f3d 1391 b83c 2077 3e3e
00000240: fccf 85bc bcbe 93be f888 123e 8c5e 8d3d
00000250: 8a0f 8bbe 7c2a 85be b031 0b3d 983c fe3d
00000260: 1fad c1be e1bd 86be 45af 2d3e b3fd cabe
00000270: 5301 febd 1e46 8f3d 0844 fcbb f3e7 e8bd
00000280: 9fa2 47bf 5b6b 0dbe d8ad 83be 2999 36be
00000290: e143 6c3d d58a c83d be87 36be 321c 3bbe
000002a0: 21fb 45be 881d 033e 8ddb a2be 99e4 d3be
000002b0: 6d4b 3e3e 2d69 58be 4ac9 7ebe 1019 a4be
000002c0: dd76 babd 97ab f93b cc79 eb3d b512 07be
000002d0: 1d0d acbe 156d 59be 492d 443e 73ee 21bf
000002e0: 081a b6be f551 0a3e ba7d b9bd 9db5 b83d
000002f0: 381e 2ebe 501b 063d ee26 9dbe 83ac cdbe
00000300: 8766 22be 36bb 32be e212 393e 6d7d dbbe
00000310: 1304 b03a a519 afbe 7a43 6c3d 6bf5 9abc
00000320: cab7 213e 08e3 09be 57d3 dabd 328b d6be
00000330: 5cca a83d df60 a3be a81f d0be f6d6 19be
00000340: 9484 2b3b 1544 21be 3593 bcbb 8473 8cbe
00000350: 5fea e63d b218 41bd f50a 11bd 219e 05be
00000360: a42f 66be a57e 143e 373a 84bd 2df1 99be
00000370: 4266 e93d 138a 37be 78bc f9bc ac21 8bbe
00000380: 1b79 2abd c7f0 043d 0c5c 983d 9bb8 f13d
00000390: 077c 823e 2434 96be 70c2 33bf c64e c9bd
000003a0: 7899 9d3d 81e5 10be d185 81be 1198 fd3c
000003b0: 67d7 b93d a981 2fbe 137e 143b 4721 403c
000003c0: f4ae bfbd 68d9 1dbd 4120 843c 4881 7c3d
000003d0: 7d87 cbbe 5977 3bbd 4a1a 8cbe fc20 303e
000003e0: 9a83 f93d b5f7 a4be c16a 31be 89a0 27be
000003f0: 8f44 7f3d 22ba 19bd 5666 ca3d 436a 5bbe

fc3.bias f4 [10]
0.115353875 -0.011737529 0.009559087 -0.07730178 -0.085757375 -0.006848856 -0.17061073 -0.18987858
0.21090949 0.07640802
00000000: a73e ec3d c44e 40bc b89d 1c3c 6550 9ebd
00000010: 90a1 afbd 5e6c e0bb 94b4 2ebe 886f 42be
00000020: a8f8 573e cf7b 9c3d
